…
': tensor([0., 1., 1., 1., 1., 1., 1., 1., 1., 1., 1., 1., 1., 1., 1., 1., 1.],
       device='cuda:0'), 'patch_size': 7, 'batch_size': 40, 'learning_rate': 0.01, 'scheduler': <torch.optim.lr_scheduler.ReduceLROnPlateau object at 0x7f004ad5c410>, 'supervision': 'full', 'center_pixel': True}
Network :
==========================================================================================
Layer (type:depth-idx)                   Output Shape              Param #
==========================================================================================
├─Conv3d: 1-1                            [-1, 16, 4, 5, 5]         1,600
├─Conv3d: 1-2                            [-1, 16, 4, 5, 5]         272
├─Conv3d: 1-3                            [-1, 16, 4, 5, 5]         784
├─Conv3d: 1-4                            [-1, 16, 4, 5, 5]         784
├─Conv3d: 1-5                            [-1, 16, 4, 5, 5]         784
├─Conv3d: 1-6                            [-1, 16, 4, 5, 5]         272
├─Conv3d: 1-7                            [-1, 16, 4, 5, 5]         784
├─Conv3d: 1-8                            [-1, 16, 4, 5, 5]         784
├─Conv3d: 1-9                            [-1, 16, 4, 5, 5]         784
├─Conv3d: 1-10                           [-1, 16, 2, 4, 4]         3,088
├─Dropout: 1-11                          [-1, 512]                 --
├─Linear: 1-12                           [-1, 17]                  8,721
==========================================================================================
Total params: 18,657
Trainable params: 18,657
Non-trainable params: 0
Total mult-adds (M): 0.78
==========================================================================================
Input size (MB): 0.00
Forward/backward pass size (MB): 0.11
Params size (MB): 0.07
Estimated Total Size (MB): 0.19
==========================================================================================
…
