…
': tensor([0., 1., 1., 1., 1., 1., 1., 1., 1., 1., 1., 1., 1., 1., 1., 1., 1.],
       device='cuda:0'), 'patch_size': 7, 'batch_size': 40, 'learning_rate': 0.01, 'scheduler': <torch.optim.lr_scheduler.ReduceLROnPlateau object at 0x7fca6c8c1b10>, 'supervision': 'full', 'center_pixel': True}
Network :
==========================================================================================
Layer (type:depth-idx)                   Output Shape              Param #
==========================================================================================
├─Conv3d: 1-1                            [-1, 16, 18, 5, 5]        1,600
├─Conv3d: 1-2                            [-1, 16, 18, 5, 5]        272
├─Conv3d: 1-3                            [-1, 16, 18, 5, 5]        784
├─Conv3d: 1-4                            [-1, 16, 18, 5, 5]        1,296
├─Conv3d: 1-5                            [-1, 16, 18, 5, 5]        2,832
├─Conv3d: 1-6                            [-1, 16, 18, 5, 5]        272
├─Conv3d: 1-7                            [-1, 16, 18, 5, 5]        784
├─Conv3d: 1-8                            [-1, 16, 18, 5, 5]        1,296
├─Conv3d: 1-9                            [-1, 16, 18, 5, 5]        2,832
├─Conv3d: 1-10                           [-1, 16, 16, 4, 4]        3,088
├─Dropout: 1-11                          [-1, 4096]                --
├─Linear: 1-12                           [-1, 17]                  69,649
==========================================================================================
Total params: 84,705
Trainable params: 84,705
Non-trainable params: 0
Total mult-adds (M): 6.18
==========================================================================================
Input size (MB): 0.01
Forward/backward pass size (MB): 0.53
Params size (MB): 0.32
Estimated Total Size (MB): 0.86
==========================================================================================
…
