…
': tensor([0., 1., 1., 1., 1., 1., 1., 1., 1., 1., 1., 1., 1., 1., 1., 1., 1.],
       device='cuda:0'), 'patch_size': 7, 'batch_size': 40, 'learning_rate': 0.01, 'scheduler': <torch.optim.lr_scheduler.ReduceLROnPlateau object at 0x7f961014f910>, 'supervision': 'full', 'center_pixel': True}
Network :
==========================================================================================
Layer (type:depth-idx)                   Output Shape              Param #
==========================================================================================
├─Conv3d: 1-1                            [-1, 16, 103, 5, 5]       736
├─Conv3d: 1-2                            [-1, 16, 103, 5, 5]       272
├─Conv3d: 1-3                            [-1, 16, 103, 5, 5]       784
├─Conv3d: 1-4                            [-1, 16, 103, 5, 5]       784
├─Conv3d: 1-5                            [-1, 16, 103, 5, 5]       784
├─Conv3d: 1-6                            [-1, 16, 103, 5, 5]       272
├─Conv3d: 1-7                            [-1, 16, 103, 5, 5]       784
├─Conv3d: 1-8                            [-1, 16, 103, 5, 5]       784
├─Conv3d: 1-9                            [-1, 16, 103, 5, 5]       784
├─Conv3d: 1-10                           [-1, 16, 101, 4, 4]       3,088
├─Dropout: 1-11                          [-1, 256]                 --
├─Linear: 1-12                           [-1, 17]                  4,369
==========================================================================================
Total params: 13,441
Trainable params: 13,441
Non-trainable params: 0
Total mult-adds (M): 20.01
==========================================================================================
Input size (MB): 0.04
Forward/backward pass size (MB): 3.03
Params size (MB): 0.05
Estimated Total Size (MB): 3.12
==========================================================================================
…
